nn_models/2024-04-13.07.40.18model_best_nn_orig_aug.pth (torch, 603232 bytes, 3 tensors)

0.weight f4 [100, 1500]
0	0x3e9abe7e	0.3022346
1	0xbe6d25ea	-0.23158994
2	0xbe20f56c	-0.15718621
3	0x3f2696aa	0.65073645
4	0xbf91bd8d	-1.1385971
5	0xbce3aa46	-0.027791154
6	0xbe9451cf	-0.28968665
7	0xbf944b25	-1.1585432
8	0xbf94f4e0	-1.163723
9	0xbe65d452	-0.22444275
10	0xbda48ee5	-0.080350675
11	0xbed70be0	-0.42001247
12	0xbe0426ce	-0.12905428
13	0xbf74c389	-0.9561086
14	0xbf6bf160	-0.92165184
15	0xbeb491c1	-0.3526745
16	0xbf2912eb	-0.6604449
17	0xbcd4dd4d	-0.02598443
18	0xbd46baad	-0.04851787
19	0x3d89ee96	0.0673496
20	0x3f4d5349	0.8020521
21	0xbf16f2e0	-0.5896435
22	0x3ed72d8a	0.4202693
23	0xbf11c3d8	-0.5693946
24	0x3e67d103	0.22638325
25	0x3f897db6	1.0741489
26	0x3e863526	0.26212424
27	0xbe3405ea	-0.17580381
28	0x3e058b57	0.13041435
29	0xbf957cf8	-1.1678762
30	0x3fa9e322	1.327244
31	0x3bace393	0.0052761524
32	0x3f15c511	0.58503824
33	0xbe621701	-0.22079088
34	0xbcb985ef	-0.022646872
35	0x3fb811f1	1.4380475
36	0xbf604225	-0.8760093
37	0xbf9f9c0d	-1.2469498
38	0x3f46da78	0.77677107
39	0x3eee2297	0.46510765
40	0x3d2a56d1	0.0415867
41	0xbf8803ed	-1.0626198
42	0x3ec9b160	0.3939314
43	0xbf41235f	-0.75444597
44	0xbe7e15ee	-0.24813053
45	0x3eb2092b	0.3477262
46	0x3f897063	1.0737423
47	0xbe7d22fc	-0.24720377
48	0xbeb374f5	-0.3505017
49	0xbe2ef8ca	-0.17087093
50	0x3daa3e9d	0.08312724
51	0xbf18583b	-0.5950963
52	0x3f30d88f	0.6908044
53	0x3f736e6c	0.95090365
54	0xbebf4bb5	-0.37362447
55	0x400ccf20	2.200142
56	0x3e7fe71c	0.24990505
57	0x3f3eda25	0.7455161
58	0xbdb33425	-0.0875018
59	0x3f7951fa	0.9739071
60	0xbf8c1d98	-1.0946531
61	0x3f10f950	0.5663042
62	0xbc58514a	-0.013202975
63	0xbf36f7ec	-0.7147205
64	0xbf17c329	-0.59282166
65	0x3edc6c98	0.430516
66	0xbe5f4e2d	-0.21807165
67	0xbf058be0	-0.5216656
68	0x3da91b15	0.082571186
69	0x3f26f088	0.6521077
70	0xbb88e546	-0.004177722
71	0xbcf101c9	-0.029419797
72	0x3fc34090	1.5254078
73	0xbfcda8b7	-1.6067113
74	0x3f17480e	0.5909432
75	0xbf979f4d	-1.184549
76	0xbed32201	-0.4123688
77	0x3f910658	1.1330061
78	0xbeb7b7a5	-0.35882297
79	0x3fb36d8e	1.4017808
80	0xbdb4d24f	-0.08829176
81	0x3f32b90c	0.6981361
82	0x3e6927b4	0.22769052
83	0x3f9bdf0c	1.2177444
84	0x3e2d14b7	0.16902433
85	0x3e6af1a4	0.22943741
86	0xbda8dc89	-0.08245189
87	0xbf5ab0a1	-0.85425764
88	0x3fb7e8e5	1.4367949
89	0xbda36478	-0.07978147
90	0xbeb8a625	-0.36064258
91	0xbea019cb	-0.31269678
92	0xbf0d133a	-0.5510746
93	0xbef9f3d2	-0.48818833
94	0x3e207fd5	0.15673764
95	0x3e548875	0.20755179
96	0x3f44c16f	0.76857656
97	0xbfdf2225	-1.7432295
98	0x3f936b36	1.1517093
99	0xbe5378cc	-0.20651549
100	0x3f5f1af1	0.87150484
101	0xbef2963f	-0.47380254
102	0xbec27a03	-0.37983713
103	0xbdaf5c75	-0.08562557
104	0x3f8ee3df	1.1163291
105	0xbe67a60a	-0.22621933
106	0x3f5f6bdc	0.87273955
107	0x3f5bcdca	0.85860884
108	0xbf702ad5	-0.93815356
109	0xbe2bf9ba	-0.16794482
110	0x3f2d7f93	0.6777279
111	0x3dd05df3	0.101741694
112	0xbe1fc41f	-0.15602158
113	0x3f379e48	0.71725893
114	0xbe9e9c31	-0.3097854
115	0x3da5d4d7	0.080972366
116	0x3dbae224	0.09125164
117	0x3eedb2cc	0.46425474
118	0xbfb322f9	-1.3995048
119	0x3f47313d	0.77809507
120	0xbf4e8a21	-0.8067952
121	0xbeed6e15	-0.46373048
122	0x3eb33538	0.3500154
123	0x3f419c0f	0.7562875
124	0xbdcf3262	-0.10117032
125	0xbebdb6a9	-0.3705342
126	0x3f15951a	0.58430636
127	0xbf18d416	-0.5969862
128	0xbe3ad7f9	-0.1824645
129	0xbd11ad83	-0.035565864
130	0x3df46def	0.11935031
131	0x3e7633a2	0.24043134
132	0xbfab27cf	-1.3371524
133	0x3c003aac	0.007826488
134	0xbda23ac7	-0.07921367
135	0x3fb781ba	1.4336464
136	0xbcb8f3ee	-0.022577252
137	0x3ef341ed	0.47511235
138	0xbbfaca46	-0.0076535074
139	0xbfa07146	-1.2534568
140	0xbe1a8acf	-0.15092014
141	0xbf2ce409	-0.67535454
142	0x3ef91ddc	0.48655593
143	0xbda4fa55	-0.080555595
144	0x3e180513	0.14845686
145	0x3f01bf36	0.5068239
146	0x3f456bb0	0.77117443
147	0x3f56c61b	0.83896035
148	0x3e3c3bea	0.1838223
149	0xbf666228	-0.89993525
150	0x3f85a9b8	1.0442419
151	0x3f19c6f2	0.6006919
152	0xbf57b9bb	-0.8426778
153	0xbf6b37c4	-0.91881967
154	0xbf9dcded	-1.2328469
155	0xbebe1cb7	-0.37131283
156	0x3f563b39	0.83684117
157	0x3f4a5f66	0.79051816
158	0x3f858002	1.042969
159	0x3ec5381a	0.38519365
160	0x3f9cd015	1.2251002
161	0xbf1a40d4	-0.6025517
162	0x3e780c9c	0.2422356
163	0x3f294467	0.6612
164	0xbf765487	-0.9622273
165	0xbfa55490	-1.2916431
166	0x3f26784d	0.65027314
167	0x3eea4797	0.45757744
168	0xbfa86389	-1.3155376
169	0x3f92a28d	1.1455857
170	0xbe84d05c	-0.25940216
171	0x3efe8076	0.49707383
172	0xbddb6844	-0.107132465
173	0xbf93271a	-1.1496308
174	0xbf838e2e	-1.0277765
175	0xbf58bcb6	-0.8466295
176	0x3fa32652	1.274607
177	0x3e391008	0.18072522
178	0x3ef5f8eb	0.48041472
179	0xbdf27aef	-0.11839854
180	0xbf8aca73	-1.0843033
181	0xbf8dfccb	-1.1092771
182	0x3ea4250a	0.3205951
183	0xbfc8b5dd	-1.56805
184	0xbf9b352c	-1.2125602
185	0x3e80d5b5	0.25163046
186	0x3f0bb5a3	0.5457403
187	0x3d92a3a8	0.07160121
188	0xbf7c4873	-0.9854805
189	0xbe77c5c8	-0.24196541
190	0x3f3f9727	0.74840015
191	0xbf2063bc	-0.6265218
192	0x3ea3b6ef	0.31975505
193	0x3e845314	0.25844634
194	0xbf0958b2	-0.53650963
195	0x3f077933	0.5291931
196	0xbed9a546	-0.42508906
197	0x3e8cdd03	0.2751237
198	0xbefc93b3	-0.49331436
199	0xbf1cf72b	-0.6131465
200	0xbe82f858	-0.25580096
201	0xbdc3ca2e	-0.09560047
202	0xbe1d3f68	-0.15356219
203	0xbc1b93cd	-0.009495688
204	0xbf459bd9	-0.7719093
205	0x3e0be537	0.13661657
206	0xbd0497a6	-0.032371186
207	0xbf988776	-1.1916339
208	0x3f67b134	0.90504766
209	0xbf01131f	-0.504198
210	0xbee93fea	-0.45556575
211	0x3f86b6ed	1.0524575
212	0xbe7391c8	-0.2378608
213	0x3f54a2ed	0.83061105
214	0x3f68c23d	0.90921384
215	0xbf330c5b	-0.6994073
216	0x3f366e84	0.71262383
217	0x3e822ada	0.25423318
218	0xbf6f6ed1	-0.9352847
219	0x3f2cc7b3	0.67492217
220	0x3f2f0140	0.6836128
221	0xbe329af0	-0.17441916
222	0x3e86eeb6	0.26353997
223	0xbf6a24fc	-0.91462684
224	0xbf93f6ca	-1.1559689
225	0xbe1f2eac	-0.15545148
226	0x3fa2700e	1.2690446
227	0xbee0c428	-0.43899655
228	0x3c309e76	0.0107799675
229	0xbcab8418	-0.02093701
230	0xbf0f508a	-0.5598227
231	0x3dfe2e03	0.1241112
232	0xc00c77a2	-2.1948018
233	0x3f87dcce	1.0614259
234	0x3fb5c98f	1.4202136
235	0x3f4865d7	0.78280395
236	0x3f55e7f5	0.83557063
237	0x3ea29ee5	0.31761852
238	0xbf94a4f2	-1.1612837
239	0x3fd40868	1.6565065
240	0xbcec7608	-0.028864875
241	0x3debf081	0.11520482
242	0xbf5a5f56	-0.8530172
243	0xbf842538	-1.0323858
244	0x3fce28a8	1.6106157
245	0xbe5d4a7c	-0.21610445
246	0x3e9e9484	0.30972683
247	0x3f09bea5	0.53806525
248	0x3f3cc41f	0.7373676
249	0xbfa14ac0	-1.2600937
250	0xbe0889ed	-0.13333865
251	0x3fbc7f8a	1.4726422
252	0x3e17bcd3	0.14818124
253	0x3c77f4f7	0.015134088
254	0xbeb1b2f7	-0.34706852
255	0xbf2edd54	-0.6830647

0.bias f4 [100]
0	0xbc9f7391	-0.019464286
1	0xbdab9d3b	-0.08379599
2	0xbc003a8d	-0.00782646
3	0x3dd8b60f	0.105816
4	0x3da98d9d	0.08278964
5	0xbc439102	-0.011936428
6	0xbbbbac96	-0.005727361
7	0x3e3d113d	0.18463607
8	0xbdfbd3ca	-0.12296255
9	0xbda61971	-0.08110321
10	0xbd251671	-0.040304605
11	0xbe162ec2	-0.14666274
12	0xbd187511	-0.03722102
13	0xbd5cfa16	-0.053949438
14	0x3dd6f08f	0.10495102
15	0x3c9efb48	0.01940693
16	0xbd6bc028	-0.0575563
17	0xbd991004	-0.07473758
18	0xbc854493	-0.01626805
19	0x3dc4d017	0.096100025
20	0xbd91270c	-0.07087526
21	0xbc8588a4	-0.016300507
22	0xbc573d28	-0.013137139
23	0xbddf391b	-0.10899564
24	0xbcdfe446	-0.027330529
25	0xbdab2440	-0.083565235
26	0x3ca47e53	0.020079767
27	0x3d5181c3	0.05114914
28	0xbc6473d3	-0.01394363
29	0xbd1a9003	-0.037734997
30	0xbd93cb02	-0.07216455
31	0xbdb4995b	-0.08818313
32	0xbda24eef	-0.07925212
33	0x3dccca0d	0.09999476
34	0xbdb19f94	-0.08673015
35	0xbe1168f4	-0.14200193
36	0xbc1decf9	-0.009639018
37	0xbda8f36f	-0.08249556
38	0x3d7db2ec	0.06193821
39	0xbd4b01d5	-0.049562294
40	0x3d607811	0.054802004
41	0xbdab5e95	-0.083676495
42	0xbdb9f939	-0.090807386
43	0x3cae5a88	0.021283403
44	0xbe0840b0	-0.13305926
45	0xbdcbf10d	-0.09958086
46	0xbd86c249	-0.06580026
47	0xbc858ffb	-0.016304007
48	0x3dae358a	0.085063055
49	0xbbadffff	-0.005310058
50	0xbd9bac21	-0.0760119
51	0xbdcd30a2	-0.100190416
52	0xbda9bf8b	-0.08288487
53	0xbc06a1bb	-0.0082172705
54	0xbdb9d90a	-0.090746
55	0x3dc01ddb	0.093806945
56	0xbe1179a1	-0.14206554
57	0xbdce7be3	-0.10082223
58	0xbba3c01e	-0.0049972674
59	0x3ded4fd3	0.11587491
60	0xbdcc7697	-0.09983557
61	0x3dba1f2b	0.09087976
62	0x3de38533	0.1110939
63	0xbbd50d5b	-0.0065018362
64	0xbc9b3f92	-0.018951211
65	0xbe06bb30	-0.13157344
66	0x3dde3a01	0.10850907
67	0xbdbbd008	-0.09170538
68	0x3d504ec1	0.050856356
69	0x3dafc9c9	0.08583409
70	0x3d61ede3	0.055158507
71	0x3dbd9c73	0.09258356
72	0xbd0be991	-0.034158293
73	0x3dc70331	0.097174056
74	0xbdafa19d	-0.08575747
75	0xbdcae1d5	-0.09906355
76	0x3d41f5c5	0.047353525
77	0x3e1106b2	0.1416271
78	0xbe04cc6f	-0.1296861
79	0xbd84ed11	-0.06490529
80	0xbd6111f4	-0.054948762
81	0xbde359a4	-0.11101082
82	0x3cca7cce	0.024717715
83	0x3df52984	0.11970809
84	0x3de4e657	0.11176746
85	0xbdb8f546	-0.09031157
86	0x3d9a2336	0.07526247
87	0xbdb194bb	-0.08670946
88	0xbdf02677	-0.117260866
89	0xbd0caaa9	-0.03434244
90	0xbd25aa3c	-0.04044555
91	0xbda7600f	-0.081726186
92	0x3d9f4252	0.077763215
93	0x3bf7c40a	0.0075612115
94	0x3d601966	0.05471172
95	0x3d09ed7c	0.03367375
96	0x3dd81c0d	0.10552225
97	0xbda7ee23	-0.08199718
98	0xbe268ece	-0.16265413
99	0xbd3e5f80	-0.046477795

2.weight f4 [1, 100]
0	0x4086b584	4.2096577
1	0xbea45416	-0.32095402
2	0xbf804de8	-1.0023775
3	0x3ee1fbc6	0.441374
4	0xbde0b5eb	-0.10972198
5	0xc0af5ed2	-5.4803247
6	0xc0de780e	-6.952155
7	0x3eea9426	0.45816153
8	0x3d00dda4	0.031461373
9	0xc0944286	-4.6331205
10	0x40a61083	5.1895156
11	0xbfd0c479	-1.6309959
12	0x3f051bc4	0.5199549
13	0x4075f280	3.842926
14	0x3e840152	0.25782257
15	0x406531b5	3.5811589
16	0xbe7180a0	-0.23584223
17	0x40208391	2.5080302
18	0xc065b99c	-3.5894537
19	0x3e8b0e6c	0.2715944
20	0xbdc989cd	-0.098407365
21	0xbff80bf1	-1.9378644
22	0xc0a2e96f	-5.0909953
23	0xbf8b3607	-1.0875863
24	0xbed426f1	-0.4143596
25	0x3f1d5f3b	0.61473435
26	0xbe8d03ce	-0.27541965
27	0x3f3c0860	0.7345028
28	0xc10450e0	-8.269745
29	0x3fab5084	1.3383946
30	0xbf164e32	-0.58713067
31	0x40b36e66	5.6072264
32	0x3fcdd0f9	1.6079398
33	0xbf9155f9	-1.1354362
34	0x409b5911	4.8546224
35	0xc03452fd	-2.8175652
36	0x40542266	3.3145995
37	0x40aec884	5.461977
38	0xbe8d1c64	-0.27560723
39	0xc0932677	-4.5984454
40	0xbf1534a2	-0.58283436
41	0x403672ba	2.8507524
42	0xc08e85cd	-4.453833
43	0x404cdacf	3.200855
44	0x3fa3cfe5	1.2797819
45	0xc0c79f1c	-6.2381725
46	0xc0e30f9b	-7.095655
47	0xbd0204ab	-0.031742733
48	0x3e06524c	0.13117331
49	0xbe617cf4	-0.22020322
50	0xc02821fa	-2.6270738
51	0xbf7bd9cc	-0.98379207
52	0xbd68dca8	-0.05685106
53	0x408a2964	4.3175526
54	0x3e94afe5	0.29040447
55	0x3f3c2d61	0.7350674
56	0x3e4a5249	0.19757952
57	0x40ac0ead	5.3767915
58	0x3d2dab8d	0.04239993
59	0x3fc8016b	1.5625433
60	0x401c28f4	2.4399996
61	0xc0451a72	-3.079739
62	0xc04528dd	-3.080619
63	0xc0167a70	-2.351223
64	0xbef81671	-0.4845462
65	0xbe43ce08	-0.19121563
66	0x3db9f20b	0.09079369
67	0xbdfc9551	-0.12333167
68	0x400ac642	2.1683507
69	0xbf28854d	-0.658284
70	0xbf86f153	-1.0542396
71	0xbe826bf7	-0.25472996
72	0x3efcdd86	0.4938776
73	0x3e0bead6	0.13663802
74	0xc043bd95	-3.0584462
75	0xbe5d299f	-0.21597908
76	0x40179654	2.3685503
77	0x3fd273e9	1.6441623
78	0x4094ae30	4.646263
79	0x40892930	4.286278
80	0xc0cfef74	-6.49798
81	0xbe479893	-0.19491796
82	0x3f0e14be	0.555004
83	0xc01d9d95	-2.462743
84	0x3d48ff21	0.049071435
85	0xbdb50df4	-0.08840552
86	0x3f4b1490	0.7932825
87	0xc01e327f	-2.471832
88	0x3f4bea79	0.7965465
89	0xbc52b0f6	-0.012859574
90	0xc0254d16	-2.58283
91	0x410281c7	8.156684
92	0xbc084cd3	-0.008319098
93	0xbf9bc6af	-1.2170008
94	0xc08d29bf	-4.411346
95	0xc02d4a03	-2.7076423
96	0x402716fe	2.6107783
97	0xbd92b661	-0.07163692
98	0x40870588	4.219425
99	0x400c5e97	2.1932733
