nn_models/2024-04-13.07.33.11model_best_nn_orig.pth (torch, 603200 bytes, 3 tensors)

0.weight f4 [100, 1500]
000000 6d 5c 6f 3c 03 93 57 3c 22 17 3d bb 85 44 77 3c
       0.014609438 0.013157609 -0.00288529 0.01509202
000010 87 9a 06 3c 31 32 44 ba b6 ef 0b bd 5e 47 e9 bc
       0.008215553 -0.0007484286 -0.034164153 -0.028476413
000020 39 1c 15 bb d1 23 24 3c 9f fe 38 bc 1f ff 54 3c
       -0.0022752418 0.010018305 -0.011291175 0.013000279
000030 10 b4 de 3c c0 65 05 bc 14 e4 c8 3c 35 74 8f 3c
       0.02718547 -0.008141935 0.024522819 0.017511467
000040 9b a8 e1 3b dd ce 80 3c de db bb bc ac 09 81 bc
       0.0068865544 0.01572364 -0.02293199 -0.015751682
000050 82 81 0e 3c db c9 92 bc 8d 10 69 3c dd 22 eb 3a
       0.008697869 -0.017918518 0.014225137 0.0017939467
000060 65 3e 34 bc ae d5 2b 3d 9a 56 12 bc 95 06 7d 3c
       -0.011001204 0.041951828 -0.00893178 0.015443464
000070 34 e3 5e 3b 0a 6f b5 3c 27 60 02 3d 8d 96 a1 bc
       0.0034009935 0.022147674 0.03182998 -0.019725109
000080 20 3b 7b bc f7 d5 76 ba 91 1a df bc 1a 6e 97 3b
       -0.015333921 -0.00094160385 -0.027234348 0.0046212794
000090 d5 08 f2 bb 4c 3e e9 ba 03 08 ab 3c e3 b2 f0 bc
       -0.0073863068 -0.0017795055 0.020877844 -0.029382175
0000a0 10 0a 48 bc c1 d0 f9 bc 11 62 00 bd cc 90 93 bc
       -0.01220943 -0.03049505 -0.031343523 -0.01801338
0000b0 e6 02 3d bb b6 56 ce bb 1f 16 d5 3b a1 ad 8a bb
       -0.002884084 -0.006296958 0.006502881 -0.004232124
0000c0 5e 8f 53 3a ae 50 93 bb d7 c5 29 bd 6b e6 46 3c
       0.00080703746 -0.0044957018 -0.04144844 0.012139897
0000d0 8c b0 6a 3c 6e c2 dc 3b 16 bf 39 3c d5 28 6a bc
       0.014324319 0.006737045 0.011337062 -0.014291962
0000e0 7c 42 07 bd 74 06 b4 3c e5 ec 28 bc 8a bc ff 39
       -0.03302239 0.021975733 -0.010310386 0.00048777863
0000f0 94 e4 88 3c 3b bf 04 3c c7 6f 9e bb 9a 6b 6b 3c
       0.016710557 0.0081022335 -0.0048351022 0.014368916
000100 24 a2 a4 3c a7 ec 96 3c ba c1 2c 3c f8 d1 b7 ba
       0.020096846 0.018423392 0.010544235 -0.0014024368
000110 a1 3a 2a bc ef b2 af bc f1 85 5b bc 2a 45 7a ba
       -0.010389955 -0.021447627 -0.013398633 -0.00095470494
000120 30 60 2c 3b 7e 67 00 3d bb cb d3 bc 51 a4 63 3b
       0.002630245 0.031348698 -0.025853982 0.0034735391
000130 a8 fa ff 3c e4 57 97 bb 6b 0f 3e 3c 2a d3 73 3c
       0.031247452 -0.0046186317 0.011600356 0.014881888
000140 64 42 05 3d a2 05 06 bc 90 a4 a8 bb 4e 8a 06 bd
       0.03253402 -0.008180054 -0.0051465705 -0.03284674
000150 f6 ee cd 3b ea b5 5c 3c ed d2 81 bb 1f 63 4b bc
       0.00628459 0.013471106 -0.003961912 -0.012413769
000160 01 4e 50 3b 27 b1 5f 3b c0 4d 03 3d 1c 38 30 bc
       0.0031784775 0.003413269 0.03205657 -0.010755565
000170 1c 5b 49 3c be 15 35 bc 76 01 de 3a f9 13 af 3b
       0.012289789 -0.011052547 0.0016937691 0.005342957
000180 04 0c 2d 3c 8f 11 7f 3b 1c 9b 0c 3c c4 94 49 bc
       0.010561947 0.0038920378 0.008581903 -0.012303535
000190 ad bc 3c bd 47 eb cc 3c 3b 2e 4f 3b 10 dc 98 3c
       -0.046078373 0.025014533 0.003161325 0.018659621
0001a0 a8 3e 88 3c 3f 2e 8f 3c 07 56 5d 3c 1a cf 8f 3c
       0.01663144 0.017478107 0.01350928 0.017554808
0001b0 a3 33 fb 3b 15 42 8e bb d0 5e 73 3c 1f 62 c5 3c
       0.0076660677 -0.0043413737 0.014854148 0.02409464
0001c0 fc d0 7f bc b9 3c 06 bd 34 7b c1 3b 4d b8 af 3c
       -0.015613791 -0.032772753 0.0059045795 0.021450186
0001d0 05 93 a5 3b e4 45 05 bd 16 82 02 bc 7b df f0 3c
       0.0050529265 -0.032537356 -0.007965585 0.029403439
0001e0 20 7f 70 bc 70 b9 18 bc 5b 1e a4 3c 74 3e 02 bc
       -0.014678746 -0.0093215555 0.020034006 -0.00794946
0001f0 33 f7 81 3c 70 db 9e bb 00 38 70 bc 41 b1 e6 3b
       0.015864944 -0.0048479363 -0.014661789 0.0070401733
000200 e0 13 c5 bc 92 f1 e0 3b 58 62 02 3d 2a 89 2c 3c
       -0.024057329 0.006864735 0.03183207 0.010530749
000210 25 4e 6d bc 9d b4 06 bd c7 c8 1c bd c2 05 29 bd
       -0.014483963 -0.03288709 -0.038277414 -0.041265257
000220 7f b4 5a bc 69 32 f2 bc fb 83 85 bc 30 fd 2a bc
       -0.013348698 -0.029565053 -0.016298285 -0.010436341
000230 88 0f ca 3c 6a 23 23 bc 7b ad 80 3c 70 6d 0d bd
       0.024665609 -0.009957174 0.015707722 -0.034528196
000240 ab 8c 3e 3c 13 6e 67 3b a8 f8 08 ba b2 6c bb 3c
       0.011630218 0.0035313412 -0.0005225041 0.022878978
000250 ee 5f 7a 3c 49 3e ad bc 98 e7 0e bd 6f 3e 04 bc
       0.0152816605 -0.021147864 -0.034888834 -0.008071526
000260 ea b9 ad 3b 35 21 4d bc 82 d7 c8 bc f3 c2 0c 3c
       0.0053017037 -0.012520124 -0.024516825 0.008591401
000270 50 14 a7 bc d3 92 87 ba c0 34 36 bc 3c e3 74 bc
       -0.020395428 -0.001034344 -0.011120975 -0.014946755
000280 ac 61 19 3c 7b dd 5e 3c d8 cc 87 bc 78 e4 1f 3d
       0.009361666 0.01360261 -0.01657717 0.039036244
000290 50 6c ce bb f1 d4 10 bb 37 e7 8e bb 55 12 62 bc
       -0.006299533 -0.002209958 -0.004361059 -0.013798316
0002a0 b0 30 94 3c 71 c1 e4 ba eb ab d4 3a 2d 6e 02 3a
       0.018089622 -0.001745267 0.0016225552 0.0004975524
0002b0 15 d2 58 bc 01 c7 86 bc 7c 74 24 bd b3 cb 4a bc
       -0.013233681 -0.016452314 -0.04015015 -0.012377667
0002c0 d9 84 8c 3c 7e 73 97 bc d4 48 13 bd cb fe 59 bc
       0.01715319 -0.018487688 -0.035958126 -0.013305376
0002d0 76 80 e3 3c 37 7f 4e bb db 9f a2 bb b0 54 39 bd
       0.027771216 -0.0031508931 -0.004962904 -0.04524678
0002e0 3a 48 12 bd 8a c1 10 bd b7 07 ad bc 8a 10 ad ba
       -0.035713412 -0.035340823 -0.021121843 -0.0013203782
0002f0 6a 3f 4d 3c 1f 19 4f 3c 8c 00 e0 3a 45 10 f3 3c
       0.012527326 0.012640267 0.0017090007 0.029670844
000300 5a 8d c1 bc fb 5c 90 3c bb b9 a4 ba ef 8f 0b bd
       -0.023626972 0.017622462 -0.0012567559 -0.034072813
000310 d2 58 03 bd e5 7b 7c 3b 78 dd 44 bc 1a a4 b9 bc
       -0.032067128 0.0038525995 -0.012015693 -0.022661258
000320 92 2c b9 bc df af 07 bb c7 0b 4d bc db 57 47 bb
       -0.02260426 -0.0020704193 -0.012515015 -0.0030417356
000330 03 56 81 3c 11 a9 c3 bc 01 47 7c bc f4 a5 a6 3b
       0.015788084 -0.023884328 -0.015397788 0.005085701
000340 91 19 4b bc b1 b3 48 3c 67 b5 e9 bc 54 19 2f bb
       -0.012396232 0.012249873 -0.028528882 -0.0026717978
000350 46 0c be 3c 27 0c 0d 3a fe e2 c1 bc 32 7a 0f bc
       0.023199212 0.0005380534 -0.023667809 -0.008757161
000360 0e 26 83 3a 1c fe ab bc 33 1c bd 3b f4 7b 51 3c
       0.0010005848 -0.020995192 0.005771184 0.0127859
000370 20 f6 55 bc f9 65 a8 3c d8 a9 b2 3b b6 1e 59 3c
       -0.013059169 0.020556437 0.005452376 0.013251951
000380 6f 5e dd 3b a2 1c f2 bc bc da c2 3b ae 4a c0 bc
       0.006755642 -0.029554669 0.0059464853 -0.02347311
000390 ec ef ee 3c 71 89 be bc b2 ce d5 3c d0 00 71 bc
       0.029167138 -0.023258897 0.026099537 -0.014709666
0003a0 19 95 41 bc b9 88 10 bd 82 79 1a bc a5 73 a3 3c
       -0.011815333 -0.03528664 -0.009428384 0.019952605
0003b0 89 37 9d bc e7 c5 e9 3b 3e 69 eb 3c 5d b1 bf 3c
       -0.01919152 0.0071341875 0.028736707 0.023400003
0003c0 68 bf 91 bc 92 04 96 3b 65 5f 62 bb 8a be 25 bc
       -0.017791465 0.0045781815 -0.0034541723 -0.010116229
0003d0 a6 81 86 bc 5e 0d 0a bd 23 c7 98 bc c1 8b c1 bc
       -0.016419243 -0.033704154 -0.018649643 -0.02362621
0003e0 53 ed ff bb ea 10 89 bc e8 34 c9 bb 98 13 11 3c
       -0.0078102737 -0.016731698 -0.00614034 0.008854769
0003f0 3a 31 84 3c 45 2e 77 3c a7 be 3f 3c bc 01 e9 bc
       0.016136754 0.015086715 0.01170317 -0.02844321

0.bias f4 [100]
000000 dc 7e 9c bc 11 14 bf bb b6 63 bc bc a2 16 f9 bb
       -0.01910346 -0.0058312495 -0.022996765 -0.007601575
000010 69 7d a5 bc 38 a6 e3 3b cf f3 2c bd b7 0f 5b 3c
       -0.020201402 0.006947305 -0.0422247 0.013370446
000020 71 73 fa 3b 9f 93 f2 bc 6d c1 5a 3c 44 b0 fe bc
       0.007643156 -0.029611407 0.01335178 -0.03108991
000030 ba 9a e0 3b d9 83 25 bd 7f e0 3c bc ab d9 fc bc
       0.0068543823 -0.040408943 -0.011528133 -0.03086551
000040 c6 21 ee bc 22 35 4b 3b 15 84 82 bc 4d 42 3a bd
       -0.029068839 0.0031007011 -0.015932122 -0.045473386
000050 b6 d2 ad bd e9 4a e7 bc 04 9c d6 bc f7 9a 0b bd
       -0.084874555 -0.028233962 -0.02619744 -0.034083333
000060 f8 b9 57 bd 29 ac 96 bc 12 91 98 3a c1 0e 48 bc
       -0.052667588 -0.01839264 0.0011639914 -0.012210549
000070 d6 55 a7 bd 42 55 02 bd 40 3a ac 3c d9 63 50 3c
       -0.08170669 -0.03181959 0.02102387 0.012719118
000080 3f ea f8 bb 77 0a 46 bc ac 5e af bc 2a 19 9a 3c
       -0.0075962837 -0.012087456 -0.021407448 0.018810827
000090 98 f9 07 bd 8b a4 64 bc 35 41 8c bc 68 9c fe bc
       -0.033197016 -0.013955246 -0.017120937 -0.03108044
0000a0 9f a6 7b 3c f6 1f c4 bc 66 01 01 bd 71 2a 92 3c
       0.01535955 -0.023941021 -0.031495474 0.017842503
0000b0 7d b8 b8 bc 83 ac 66 3c d7 f3 13 3c b3 c1 48 3d
       -0.022548908 0.014079216 0.009030304 0.04901285
0000c0 22 1c 3d bb a0 8f 9c bc 99 00 ce bd ae 49 23 bc
       -0.002885588 -0.019111454 -0.10058708 -0.009966297
0000d0 cd 2f c3 3b 43 20 d9 bc 6f d4 b5 bc 38 4a e6 3b
       0.005956626 -0.026504641 -0.022196023 0.0070278905
0000e0 86 a0 be bc c0 2b 8e bc 1c a4 ac bc 22 02 c3 bb
       -0.023269903 -0.017354846 -0.021074347 -0.005951182
0000f0 43 b9 a7 bb b7 10 e2 bc 28 4c 3e bd d4 e1 8f bc
       -0.0051185205 -0.02759586 -0.046459347 -0.017563738
000100 f3 59 87 bb a0 fe c9 3b dc f5 07 bb 1f 02 50 bb
       -0.004130596 0.006164387 -0.002074591 -0.0031739546
000110 99 f9 8e 39 28 2b 9f 3b 39 8c 6e bc e0 bd 31 bb
       0.00027270315 0.0048574395 -0.014559799 -0.002712123
000120 61 89 9e bc cd db b9 bc 4f 7f 51 bc 52 77 b6 bc
       -0.019352617 -0.022687817 -0.0127867 -0.022273693
000130 3b e8 6d 3c 17 0f 59 bc 31 38 9b ba 28 3f 4f 3c
       0.0145207 -0.013248227 -0.0011842308 0.012649335
000140 f1 91 51 bc 4c 6e 70 bc 52 df b9 bc b6 dd 23 bc
       -0.012791143 -0.014674734 -0.022689495 -0.0100015905
000150 11 83 f8 3b ac 78 02 3a c4 43 bf bc 2a 74 62 ba
       0.0075839837 0.0004977088 -0.023347743 -0.00086385256
000160 47 df b2 bc 4f fd 9b bc 3d aa 2c 3c 0c ef ba ba
       -0.021834983 -0.019041685 0.010538635 -0.0014261915
000170 f0 f8 79 bc b7 6f 8d 3c 82 36 de bb 17 8a f7 bc
       -0.015257105 0.017265184 -0.0067814 -0.030217214
000180 a9 63 81 bd 35 6f 86 bc 62 33 0a bb 38 12 e1 bc
       -0.06317837 -0.01641045 -0.0021087755 -0.027474508

2.weight f4 [1, 100]
000000 c6 7c 61 bc c1 8b ad bc 7a a1 f5 bc c9 1c d8 3c
       -0.013762658 -0.021184804 -0.029984225 0.026380913
000010 a0 ec 7f bb 6c 06 08 3c fa cd 35 bc cc 19 0e bd
       -0.0039050952 0.008302312 -0.011096472 -0.03469257
000020 fc 6d 2d bd 55 c9 3e 3d 0f 94 9f 3d 38 b9 e9 3f
       -0.042341217 0.046578724 0.07791912 1.8259649
000030 1c 8f 23 bd 53 c8 26 40 21 cc bd 3b ff db 3d 3c
       -0.0399314 2.6059768 0.0057921563 0.011588096
000040 33 0e b1 3d 73 02 47 bc a1 45 a8 bd cc 9d ff 3f
       0.086452864 -0.01214658 -0.08216406 1.9970031
000050 01 e9 be 3f 07 60 91 bb 6b 60 64 bd 40 80 50 bd
       1.4914857 -0.004436496 -0.055756014 -0.05090356
000060 c1 40 05 3e 7e 75 a8 3c 77 e5 de 39 98 e6 0a 40
       0.13012983 0.020563837 0.00042514104 2.1703243
000070 d0 4e 73 3f ae 0c 32 bd e8 b9 a4 3d b7 ea ab 3d
       0.95042133 -0.043469124 0.08043271 0.08394378
000080 f2 65 9b 3d 85 41 1b bd d6 59 52 bd 97 0a a1 bd
       0.07587804 -0.03790428 -0.051355205 -0.07863348
000090 51 16 83 3d 2f 16 a4 bd 91 94 12 40 46 b3 e7 bc
       0.06400741 -0.08012044 2.2903178 -0.028283726
0000a0 8c d2 ac 3d ea f5 85 3d 88 f0 30 3d 49 f8 d1 bf
       0.08438596 0.06541045 0.04319814 -1.6403896
0000b0 01 af 9c bc 76 bd b4 bd c2 0d 9f bd 02 30 3d bf
       -0.019126417 -0.08825199 -0.07766296 -0.7390138
0000c0 4c 68 94 3c c4 00 a0 3d 2b 45 b2 3e a0 b7 a4 3b
       0.018116139 0.07812646 0.34818396 0.0050267726
0000d0 4b 5d c7 bb 8f 62 4f bd 2e b8 a7 bc 8b 1b b5 bc
       -0.0060841194 -0.050631102 -0.020473566 -0.02210786
0000e0 d9 51 05 bb ba c8 54 3a 78 6d 6d 3d d4 a4 f6 3b
       -0.0020342974 0.0008117069 0.057965726 0.0075269733
0000f0 a7 57 1f 3c 90 cd ef 3d 29 c4 1f 3e 68 83 59 3c
       0.009725488 0.1170913 0.15602173 0.013275959
000100 3d 9c 8c 3d ef d2 91 bd 7d 3c 79 bd 68 8a b9 bc
       0.068657376 -0.071203105 -0.0608487 -0.022649005
000110 67 3c b9 3c 5b 2f 8c bc 6b 51 9b bd cf 9e dd 3d
       0.02261181 -0.017112425 -0.075838886 0.10821306
000120 ec 58 1c 3f 62 de 94 3d 81 29 f6 b9 81 39 d8 3f
       0.61073184 0.07268979 -0.000469517 1.6892549
000130 d0 29 89 3e 78 a7 2a bd 01 35 b1 3b 85 fb 58 bd
       0.26789713 -0.041663617 0.00540793 -0.052974243
000140 70 ea 17 bd 77 a2 69 3d 7a 74 91 3d 75 14 e1 bc
       -0.03708881 0.057039704 0.07102294 -0.027475575
000150 d7 1d 72 bd 96 ec 25 3c 5b 8f 96 bc bd 48 a2 3d
       -0.05911049 0.010127207 -0.018378904 0.0792403
000160 f3 ed ab bd 37 f5 09 3e 91 3b 50 bd 9b 6b 86 bd
       -0.083949946 0.13472448 -0.050838057 -0.06563493
000170 6b 04 2c bd b5 50 aa bd f8 0c 90 3c 7e ba 06 bd
       -0.0419964 -0.08316175 0.017584309 -0.032892697
000180 1a 11 37 bd c9 05 8d 3d 18 ed 6c bc e4 5d b0 3d
       -0.044694044 0.06885869 -0.014460824 0.08611658
